experiments/weights.pt (torch, 111120 bytes, 4 tensors)

i2h.weight f4 [128, 186]
-0.16867742 0.08354082 -0.29352495 -0.003829632 -0.097141415 -0.020850383 0.072217755 0.10027821
0.04776755 0.1678935 0.038827933 -0.045658987 0.06819056 -0.18069665 -0.06926711 -0.025301334
0.039027642 0.031297997 -0.008871788 0.100967325 0.04597559 -0.12675965 0.04923948 0.039435875
-0.04074432 -0.03285746 -0.14968996 0.09854073 -0.11989014 0.07199437 0.09124661 0.025166506
0.11245027 0.15554802 0.20962203 0.1399645 0.04728078 -0.03853959 0.11271425 0.03179597
0.047169033 -0.00447678 0.12104439 -0.095947 -0.1532388 0.018084485 -0.065799 -0.0056258943
-0.04047066 0.05574014 -0.056886524 -0.079140134 -0.053454805 -0.06365748 -0.06386414 0.044863455
-0.06838846 0.048101544 -0.09053439 0.0041348664 -0.06780531 -0.011181474 -0.10962526 -0.10014152
0.101938635 0.021130273 -0.04275605 0.0835428 -0.117833704 0.09083785 -0.06733817 0.06066387
0.041694567 0.039741583 0.007767191 -0.032897953 0.10434822 0.08298512 0.022712806 0.07234259
-0.059652943 -0.002603681 0.022873146 -0.037900668 0.0015433567 0.01867002 -0.032044988 -0.12038613
-0.023849823 0.107779816 -0.039525673 -0.09775774 -0.0978704 0.019872213 0.0114086075 0.0275453
-0.10174211 -0.029653966 0.12370311 0.08041302 0.04589126 -0.09187021 0.0071918643 0.05661412
-0.08907851 0.015431376 0.031254813 -0.04988119 -0.06595819 0.06887846 -0.0219648 0.076030865
-0.10273172 -0.07561462 0.026966063 0.076881506 -0.06654765 0.0061536655 -0.060985476 -0.0044832053
-0.033820234 -0.057034932 0.05788499 -0.065484524 0.028948838 0.12582695 -0.017662387 0.115455404
-0.045300215 -0.0993608 -0.10108731 -0.03872202 -0.08264623 -0.07709924 0.04206766 0.027208026
0.027438698 0.0682433 0.055571485 0.017848002 0.015288984 -0.052540816 -0.015658926 0.004897633
0.042800833 -0.033824608 -0.015750214 -0.03230012 -0.047057465 -0.045308776 -0.06866134 0.018994363
-0.037820168 -0.0865257 0.11486997 0.0016760657 -0.08508309 0.03490805 -0.14149322 0.03454361
-0.006647596 0.05586257 0.04716389 -0.06017808 0.07387082 -0.059662852 -0.011906861 -0.06596008
-0.03140426 -0.08888965 -0.14060013 0.006061936 -0.030136408 -0.043421987 0.01810174 0.060347624
-0.073949106 0.0552963 0.040813655 -0.027826248 -0.10629298 0.056968786 0.033747256 0.015249044
-0.025983524 -0.024412531 -0.09570588 -0.1005499 0.34608772 0.011215253 0.16712092 -0.024832781
0.15918091 0.10387545 -0.27288458 -0.17442852 -0.16959105 0.09238663 -0.14559619 -0.053804483
0.034651555 0.05177734 0.14977013 -0.0022225117 -0.082756534 0.01468308 0.009695571 -0.078873396
0.06489834 -0.034859955 -0.19865409 0.24884576 -0.04246057 0.11535553 -0.16275504 0.05049379
-0.02115774 0.012082992 0.16857898 0.053557027 -0.17583375 -0.028658388 -0.019156218 0.06331284
0.17349063 -0.018494913 -0.1903193 -0.0970418 0.08633436 0.019069603 -0.012312465 0.048780624
-0.054931566 0.02086581 0.31003335 0.12693827 -0.02141979 0.07794595 0.076842174 -0.023657579
-0.046711203 -0.07209047 -0.015413218 -0.013808041 0.023025472 -0.03572097 0.016286593 -0.10642605
0.1519288 0.0908291 -0.009563727 -0.109253965 0.061111 -0.02595338 0.05428668 -0.13621353
00000000: c6b9 2cbe 7317 ab3d e748 96be 90fa 7abb
00000010: 14f2 c6bd 6cce aabc e7e6 933d aa5e cd3d
00000020: e8a7 433d 46ec 2b3e 0a0a 1f3d eb04 3bbd
00000030: 7ea7 8b3d 8b08 39be eadb 8dbd be44 cfbc
00000040: 73db 1f3d 5432 003d fa5a 11bc f5c7 ce3d
00000050: e650 3c3d 48cd 01be 56af 493d 8387 213d
00000060: 84e3 26bd 8b95 06bd 5348 19be b9cf c93d
00000070: f688 f5bd c971 933d 81df ba3d fd29 ce3c
00000080: 544c e63d fb47 1f3e 28a7 563e db52 0f3e
00000090: 7ea9 413d b0db 1dbd bbd6 e63d 7e3c 023d
000000a0: 5134 413d f4b1 92bb 1fe6 f73d dc7f c4bd
000000b0: a2ea 1cbe ea25 943c a0c1 86bd 6c59 b8bb
000000c0: 90c4 25bd c64f 643d d801 69bd 3914 a2bd
000000d0: 6df3 5abd da5e 82bd 34cb 82bd bec2 373d
000000e0: 400f 8cbd 2006 453d 186a b9bd c67d 873b
000000f0: 83dd 8abd 8032 37bc 3583 e0bd ff16 cdbd
00000100: 34c5 d03d 6519 ad3c f820 2fbd 7d18 ab3d
00000110: cc52 f1bd 3209 ba3d 98e8 89bd ae7a 783d
00000120: ecc7 2a3d 12c8 223d ec83 fe3b 01c0 06bd
00000130: 85b4 d53d 1af4 a93d 3510 ba3c 5a28 943d
00000140: a556 74bd 85a2 2abb 7760 bb3c bb3d 1bbd
00000150: 754a ca3a dff1 983c 9b41 03bd 018d f6bd
00000160: b460 c3bc aabb dc3d ace5 21bd 3635 c8bd
00000170: 4770 c8bd 0dcb a23c 2beb 3a3c aea6 e13c
00000180: 2b5e d0bd e0ec f2bc 0e58 fd3d 95af a43d
00000190: 79f8 3b3d 7326 bcbd bba9 eb3b 35e4 673d
000001a0: cb6e b6bd e2d3 7c3c 0c05 003d 3850 4cbd
000001b0: 1615 87bd 2610 8d3d 86ef b3bc 12b6 9b3d
000001c0: 0265 d2bd d6db 9abd efe7 dc3c 0d74 9d3d
000001d0: 224a 88bd b0a4 c93b e8cb 79bd dae7 92bb
000001e0: 1687 0abd 769d 69bd d018 6d3d c01c 86bd
000001f0: 1d26 ed3c c8d8 003e b6b0 90bc e273 ec3d
00000200: b88c 39bd ad7d cbbd dd06 cfbd fb9a 1ebd
00000210: 6d42 a9bd 35e6 9dbd 234f 2c3d 5ee3 de3c
00000220: 1fc7 e03c 25c3 8b3d ed9e 633d f935 923c
00000230: a67e 7a3c 0a35 57bd 2647 80bc 537c a03b
00000240: ed4f 2f3d ac8b 0abd 9806 81bc 214d 04bd
00000250: 54bf 40bd b295 39bd 519e 8cbd 119a 9b3c
00000260: 52e9 1abd 6334 b1bd f240 eb3d 6faf db3a
00000270: 0b40 aebd befb 0e3d 99e3 10be 9a7d 0d3d
00000280: 14d4 d9bb 26d0 643d ec2e 413d 4a7d 76bd
00000290: 9649 973d 0961 74bd ff14 43bc 1416 87bd
000002a0: c1a1 00bd c70b b6bd 7bf9 0fbe 34a3 c63b
000002b0: a1e0 f6bc 41db 31bd 1a4a 943c 122f 773d
000002c0: a172 97bd 607e 623d 382c 273d dff3 e3bc
000002d0: 22b0 d9bd 1a58 693d 903a 0a3d 20d7 793c
000002e0: 66db d4bc cafc c7bc 7201 c4bd 1bed cdbd
000002f0: 6932 b13e 2ec0 373c bf21 2b3e 1e6e cbbc
00000300: 5200 233e a7bc d43d 87b7 8bbe 649d 32be
00000310: 47a9 2dbe 3435 bd3d 2b17 15be 1762 5cbd
00000320: caee 0d3d 7a14 543d 575d 193e 8fa7 11bb
00000330: 427c a9bd 4d91 703c 2cda 1e3c 6088 a1bd
00000340: 6ce9 843d 50c9 0ebd fa6b 4bbe 6cd1 7e3e
00000350: 22eb 2dbd 853f ec3d 42a9 26be 94d2 4e3d
00000360: ff52 adbc bef7 453c f89f 2c3e 9d5e 5b3d
00000370: c30d 34be ffc4 eabc 80ed 9cbc 2aaa 813d
00000380: 87a7 313e a582 97bc 10e3 42be dabd c6bd
00000390: 12d0 b03d db37 9c3c 39ba 49bc 31ce 473d
000003a0: ecff 60bd c6ee aa3c b1bc 9e3e 1bfc 013e
000003b0: 8e78 afbc 20a2 9f3d 6e5f 9d3d 8acd c1bc
000003c0: 3f54 3fbd 2ba4 93bd b987 7cbc 1f3b 62bc
000003d0: ea9f bc3c 2750 12bd 766b 853c e7f5 d9bd
000003e0: 3993 1b3e 9b04 ba3d 2eb1 1cbc 8bc0 dfbd
000003f0: 874f 7a3d 2f9c d4bc b65b 5e3d 8f7b 0bbe

i2h.bias f4 [128]
0.030349707 0.09014295 0.08469617 0.05210958 -0.039142072 0.027625676 -0.0021350407 -0.036188003
-0.068421245 -0.09569475 -0.014520533 0.016039664 -0.010039326 -0.08065426 -0.11913206 0.039095804
0.012147557 -0.020587254 -0.0335701 0.041353337 0.0040032296 -0.008584704 0.020817377 -0.09377586
-0.00067184475 -0.0041764006 0.07397082 0.14734468 -0.019490967 -0.008234544 0.06881145 0.10951542
0.013417483 0.055654377 -0.05710686 0.05500317 -0.011312569 0.051537618 -0.021216419 0.0008775086
-0.016723495 -0.091360964 -0.12867165 0.15062584 0.10642234 -0.0072585493 -0.12526903 0.022452142
0.057340775 0.11428613 -0.03460614 0.011176453 -0.046561774 0.0057437452 -0.06811378 -0.010766512
0.0024783108 0.011614788 0.052597467 0.06650913 -0.110151485 -0.016487006 -0.13104801 -0.09182179
0.023956193 -0.07072804 -0.09796751 -0.06414982 -0.038745277 -0.0062228045 -0.004145028 0.01599993
0.0066160625 0.026349854 -0.068383165 -0.09697811 0.020305067 -0.048465483 -0.009133845 -0.046761
0.11718775 -0.026334386 -0.062389214 0.1403278 0.06313152 -0.054840483 -0.06850118 -0.011115421
0.022980222 -0.021517474 0.0063583404 0.1646644 -0.097872265 -0.06888575 -0.02989886 0.062148783
-0.027326684 0.025196142 0.03446147 0.08088634 -0.022909934 0.019158678 0.12024712 -0.058285285
0.073685534 -0.08256424 0.040054955 0.1565057 -0.0022273585 0.009978319 -0.013940564 0.0075171883
0.08546539 -0.029204182 0.15202187 0.08012107 -0.044825148 -0.025346257 0.007604348 0.05411306
0.054610107 0.037722785 0.20556563 -0.0077133393 0.0054787486 -0.0011343934 -0.07105935 -0.042245828
00000000: f39f f83c de9c b83d 3075 ad3d db70 553d
00000010: 7053 20bd 3e4f e23c 0aec 0bbb df39 14bd
00000020: 7020 8cbd 9cfb c3bd 88e7 6dbc 9d65 833c
00000030: fc7b 24bc 102e a5bd 82fb f3bd ec22 203d
00000040: 8c06 473c 9aa6 a8bc cd80 09bd 1e62 293d
00000050: 862d 833b dca6 0cbc 3489 aa3c 8f0d c0bd
00000060: bd1e 30ba 30da 88bb 037e 973d 86e1 163e
00000070: 85ab 9fbc 2eea 06bc 04ed 8c3d 9f49 e03d
00000080: 01d5 5b3c d8f5 633d e2e8 69bd 014b 613d
00000090: 5a58 39bc 1c19 533d 0ece adbc 9b08 663a
000000a0: b6ff 88bc 751b bbbd 80c2 03be a93d 1a3e
000000b0: f5f3 d93d 20d9 edbb 8646 00be 8eed b73c
000000c0: 29de 6a3d d90e ea3d 2bbf 0dbd 711d 373c
000000d0: 8fb7 3ebd 0736 bc3b 3d7f 8bbd 0666 30bc
000000e0: 286b 223b f44b 3e3c 7170 573d f035 883d
000000f0: 1a97 e1bd c20f 87bc 7331 06be 100d bcbd
00000100: c73f c43c ddd9 90bd 31a3 c8bd fb60 83bd
00000110: 5eb3 1ebd abe8 cbbb 04d3 87bb 4912 833c
00000120: 8ecb d83b a6db d73c 790c 8cbd 769c c6bd
00000130: d056 a63c be83 46bd 1fa6 15bc 7688 3fbd
00000140: 2200 f03d 36bb d7bc d58b 7fbd 17b2 0f3e
00000150: 194b 813d 6aa0 60bd 594a 8cbd 741d 36bc
00000160: 0541 bc3c 6a45 b0bc a059 d03b c99d 283e
00000170: 4171 c8bd f913 8dbd 74ee f4bc b98f 7e3d
00000180: 36dc dfbc 2468 ce3c 7827 0d3d bda7 a53d
00000190: 9dad bbbc a9f2 9c3c 1f44 f63d 8dbc 6ebd
000001a0: 71e8 963d 7117 a9bd aa10 243d 0843 203e
000001b0: e0f8 11bb 1a7c 233c f766 64bc bf52 f63b
000001c0: 7a08 af3d 9c3d efbc 9fab 1b3e 8416 a43d
000001d0: 939a 37bd f4a2 cfbc e52d f93b a8a5 5d3d
000001e0: d9ae 5f3d 3583 1a3d cc7f 523e 2ec0 fcbb
000001f0: 1387 b33b edaf 94ba 9187 91bd f609 2dbd

i2o.weight f4 [18, 186]
0.4611934 1.0709802 -0.124128535 0.8192382 -0.95394164 0.7627286 -0.34901902 0.50473446
0.44616383 0.008836231 -0.5203034 -0.36660174 0.5169131 -0.855759 -0.87694645 -0.05437907
0.006773123 0.63591605 0.20568264 -0.51568645 -0.4425535 -0.20210567 -0.08694306 -0.048689064
0.15882152 0.088997774 0.019523088 -0.01598269 0.020936877 0.03878439 0.012922506 -0.038807534
-0.0039756005 0.035412867 0.06709975 0.03866074 0.052547544 0.049825776 -0.066457845 0.027086152
-0.066588804 -0.039003696 0.06445678 0.062229704 -0.046341375 0.046772677 0.06482705 0.008562815
-0.015685601 0.03830991 0.045731544 0.009865158 -0.1149354 -0.001027111 -0.027391216 -0.06339087
0.04118655 -0.069922455 0.31404173 -0.26648813 0.2776755 0.083896376 0.019687336 0.46146473
0.28940946 0.05910194 -0.24229515 0.07593796 0.0384125 -0.41726694 -0.087774314 0.35702586
0.10716987 -0.0020415778 -0.22246765 0.06176163 0.040799595 -0.15109599 0.13151172 -0.055036087
-0.24254581 0.22666335 -0.21152806 -0.062033024 -0.08081469 -0.32687035 -0.14667813 -0.11976768
-0.07211366 0.15556613 0.25087565 0.068864755 -0.0054111364 0.07604739 -0.46828085 0.49017552
0.13958749 0.07563061 0.06449647 -0.46208408 0.31067237 -0.28878587 -0.05031111 0.44068584
0.16909873 0.002050342 0.01835923 0.017766433 0.041788943 -0.36683923 0.3548592 -0.10980867
0.33455944 -0.34147626 0.11487288 0.2386314 0.089139424 0.25124103 -0.13942876 0.3222902
-0.021952849 0.2825018 0.06576047 0.060479455 0.10619763 0.13662602 -0.09552853 0.059028514
-0.12970781 0.21874294 0.12713642 -0.0573662 0.066706195 0.3298669 -0.07166352 -0.036024977
-0.20683742 -0.16158795 -0.049853463 0.25302252 -0.13655873 0.016999567 0.27841294 0.2389202
0.031624354 -0.14304158 0.10721322 0.00062357256 -0.22799632 -0.10249307 0.12004323 0.26631323
-0.13007295 -0.4333908 -0.21202104 0.11906601 -0.13399778 0.34982312 0.0904914 0.26841125
0.26816884 -0.18174505 0.11984421 -0.18121073 -0.11690244 -0.052229315 -0.016194556 -0.25795034
-0.07862719 -0.5169511 -0.028197346 0.14748566 -0.102828026 -0.079168536 0.2422714 -0.09889762
-0.28913224 -0.007848951 0.3565406 0.015266745 -0.21889322 -0.08000024 0.01668569 0.311941
0.26975557 0.23898326 -0.35292304 -0.102906674 -0.24780782 -0.18671663 0.23814002 -0.13351706
1.4964164 -0.2274756 0.5473634 -0.0709923 -0.18753062 -0.36161524 -0.17339297 0.40827787
0.32520875 0.024950393 -0.046798762 -0.18145506 -0.5558113 -0.2186312 0.5307595 0.009776178
0.46036738 -0.013523713 -0.32316306 -0.3380812 0.05227469 -0.0018542586 -0.0053175217 0.064098276
-0.03761349 -0.011523891 -0.05209699 -0.011600007 -0.06565451 -0.069592066 -0.024924478 0.014878062
0.0022830311 -0.07204081 0.071870156 0.0013821904 -0.04267812 -0.017503472 -0.022111228 -0.07299524
-0.04848724 0.0115290135 0.017296627 0.064182654 0.014074664 0.03275523 -0.02259412 -0.02509357
0.0354776 0.021333318 -0.056963123 0.05292417 -0.25512773 0.25181702 0.29005262 -0.21090233
-0.22910441 -0.12836853 0.017460806 -0.08607342 0.08938149 -0.1036129 0.58528304 0.18492335
00000000: 8b21 ec3e e115 893f 1a37 febd 98b9 513f
00000010: 8535 74bf 2e42 433f 9fb2 b2be 4736 013f
00000020: 966f e43e d7c5 103c 9b32 05bf 39b3 bbbe
00000030: 6b54 043f 0613 5bbf 907f 60bf 96bc 5ebd
00000040: 13f1 dd3b 65cb 223f 789e 523e 0704 04bf
00000050: 5f96 e2be caf4 4ebe 340f b2bd 2f6e 47bd
00000060: 1ca2 223e 7744 b63d e2ee 9f3c 21ee 82bc
00000070: d083 ab3c 61dc 1e3d ebb8 533c a6f4 1ebd
00000080: c145 82bb 150d 113d 986b 893d b95a 1e3d
00000090: 183c 573d 1d16 4c3d 0d1b 88bd c7e3 dd3c
000000a0: b65f 88bd 57c2 1fbd eb01 843d 93e4 7e3d
000000b0: 74d0 3dbd b594 3f3d 0bc4 843d 0d4b 0c3c
000000c0: 177f 80bc daea 1c3d 0051 3b3d 79a1 213c
000000d0: 4063 ebbd 20a0 86ba 8b63 e0bc 13d3 81bd
000000e0: 3ab3 283d 8133 8fbd 14ca a03e 2271 88be
000000f0: 7c2b 8e3e ddd1 ab3d 5647 a13c 1b45 ec3e
00000100: 7a2d 943e e014 723d 381c 78be 5c85 9b3d
00000110: 6d56 1d3d 03a4 d5be 05c3 b3bd 18cc b63e
00000120: e07b db3d fecb 05bb 8fce 63be c3f9 7c3d
00000130: 7a1d 273d e8b8 1abe 02ab 063e 856d 61bd
00000140: ee5d 78be 701a 683e d09a 58be 5716 7ebd
00000150: 2c82 a5bd 8d5b a7be cb32 16be c248 f5bd
00000160: 54b0 93bd ba4c 1f3e c672 803e f708 8d3d
00000170: e74f b1bb bcbe 9b3d 82c2 efbe 49f8 fa3e
00000180: 06f0 0e3e 39e4 9a3d ba16 843d 4996 ecbe
00000190: 7310 9f3e bedb 93be 0613 4ebd 93a1 e13e
000001a0: 3828 2d3e 085f 063b 1966 963c e98a 913c
000001b0: e22a 2b3d 5ad2 bbbe 1bb0 b53e 5ee3 e0bd
000001c0: 604b ab3e fad5 aebe 7942 eb3d ca5b 743e
000001d0: bb8e b63d aaa2 803e 6ac6 0ebe 3903 a53e
000001e0: 76d6 b3bc 13a4 903e 6dad 863d 4eb9 773d
000001f0: 257e d93d b1e7 0b3e 76a4 c3bd e2c7 713d
00000200: 20d2 04be 26fe 5f3e 0d30 023e d2f8 6abd
00000210: 429d 883d 50e4 a83e 53c4 92bd ed8e 13bd
00000220: 30cd 53be 5077 25be 2533 4cbd 2b8c 813e
00000230: 0dd6 0bbe ad42 8b3c 248c 8e3e 7fa7 743e
00000240: 8a88 013d 7e79 12be 9b92 db3d 3f77 233a
00000250: de77 69be e3e7 d1bd 3ad9 f53d 355a 883e
00000260: d831 05be 66e5 ddbe 0b1c 59be e1d8 f33d
00000270: b736 09be 041c b33e 8e53 b93d 336d 893e
00000280: 6d4d 893e 601b 3abe e270 f53d 4e8f 39be
00000290: 8c6a efbd 68ee 55bd 72aa 84bc 1112 84be
000002a0: 4b07 a1bd e856 04bf 1ffe e6bc 7b06 173e
000002b0: 8097 d2bd 1d23 a2bd fe15 783e d68a cabd
000002c0: 2409 94be e398 00bc 7d8c b63e 5f21 7a3c
000002d0: 8b25 60be 2ad7 a3bd 6eb0 883c bbb6 9f3e
000002e0: 671d 8a3e 07b8 743e 54b2 b4be bcc0 d2bd
000002f0: 55c1 7dbe a532 3fbe fada 733e b2b8 08be
00000300: 938a bf3f 5def 68be 0220 0c3f 6964 91bd
00000310: 0708 40be a225 b9be ed8d 31be cc09 d13e
00000320: c381 a63e c464 cc3c 0fb0 3fbd 5bcf 39be
00000330: a649 0ebf dbe0 5fbe dbdf 073f 432c 203c
00000340: 46b5 eb3e 9092 5dbc a175 a5be fb18 adbe
00000350: fc1d 563d 980a f3ba 9b3e aebb f545 833d
00000360: 9a10 1abd b4ce 3cbc a763 55bd f50d 3ebc
00000370: df75 86bd 4986 8ebd 6b2e ccbc 1dc3 733c
00000380: e89e 153b 228a 93bd a930 933d 9d2a b53a
00000390: 41cf 2ebd 7163 8fbc 9b22 b5bc 877e 95bd
000003a0: 8e9a 46bd 30e4 3c3c a8b1 8d3c 3272 833d
000003b0: 6b99 663c 592a 063d 4e17 b9bc 0891 cdbc
000003c0: f650 113d 36c3 ae3c 2a52 69bd 04c7 583d
000003d0: 1aa0 82be 29ee 803e c781 943e c8f6 57be
000003e0: 599a 6abe 0a73 03be f709 8f3c 4347 b0bd
000003f0: a50d b73d 0033 d4bd 1cd5 153f 8c5c 3d3e

i2o.bias f4 [18]
-0.04398165 0.12592478 0.21344103 0.10192511 0.53587496 0.20329973 0.35181051 -0.9462383
0.0028757125 -0.51033294 -0.35551822 0.89120483 -0.1927229 -0.41787106 0.0013808764 -0.029292598
-0.13676663 0.48239937
00000000: 1a26 34bd 6df2 003e 4990 5a3e 1dbe d03d
00000010: 1a2f 093f ce2d 503e 8220 b43e ac3c 72bf
00000020: 7376 3c3b 2ea5 02bf 7c06 b6be 0026 643f
00000030: 2759 45be 32f3 d5be 86fe b43a 08f7 efbc
00000040: 8d0c 0cbe 0dfd f63e
